…
{"obj": {"type": "AssignInt", "path": ["parameters", "hidden_units"], "value": 128}, "version": 22, "at": 1717659388.842251}
{"obj": {"type": "AssignString", "path": ["parameters", "loss_fn"], "value": "CrossEntropyLoss"}, "version": 23, "at": 1717659388.842292}
{"obj": {"type": "AssignString", "path": ["parameters", "optimizer"], "value": "Adam"}, "version": 24, "at": 1717659388.8423302}
{"obj": {"type": "AssignString", "path": ["parameters", "device"], "value": "cpu"}, "version": 25, "at": 1717659388.8423629}
{"obj": {"type": "AssignString", "path": ["model", "summary"], "value": "TinyVGG(\n  (block_1): Sequential(\n    (0): Conv2d(3, 128, kernel_size=(3, 3), stride=(1, 1), padding=(1, 1))\n    (1): BatchNorm2d(128, eps=1e-05, momentum=0.1, affine=True, track_running_stats=True)\n    (2): ReLU()\n    (3): Conv2d(128, 128, kernel_size=(3, 3), stride=(1, 1), padding=(1, 1))\n    (4): BatchNorm2d(128, eps=1e-05, momentum=0.1, affine=True, track_running_stats=True)\n    (5): ReLU()\n    (6): MaxPool2d(kernel_size=2, stride=2, padding=0, dilation=1, ceil_mode=False)\n  )\n  (block_2): Sequential(\n    (0): Conv2d(128, 128, kernel_size=(3, 3), stride=(1, 1), padding=(1, 1))\n    (1): BatchNorm2d(128, eps=1e-05, momentum=0.1, affine=True, track_running_stats=True)\n    (2): ReLU()\n    (3): Conv2d(128, 128, kernel_size=(3, 3), stride=(1, 1), padding=(1, 1))\n    (4): BatchNorm2d(128, eps=1e-05, momentum=0.1, affine=True, track_running_stats=True)\n    (5): ReLU()\n    (6): MaxPool2d(kernel_size=2, stride=2, padding=0, dilation=1, ceil_mode=False)\n  )\n  (block_3): Sequential(\n    (0): Conv2d(128, 128, kernel_size=(3, 3), stride=(1, 1), padding=(1, 1))\n    (1): BatchNorm2d(128, eps=1e-05, momentum=0.1, affine=True, track_running_stats=True)\n    (2): ReLU()\n    (3): Conv2d(128, 128, kernel_size=(3, 3), stride=(1, 1), padding=(1, 1))\n    (4): BatchNorm2d(128, eps=1e-05, momentum=0.1, affine=True, track_running_stats=True)\n    (5): ReLU()\n    (6): MaxPool2d(kernel_size=2, stride=2, padding=0, dilation=1, ceil_mode=False)\n  )\n  (block_4): Sequential(\n    (0): Conv2d(128, 128, kernel_size=(3, 3), stride=(1, 1), padding=(1, 1))\n    (1): BatchNorm2d(128, eps=1e-05, momentum=0.1, affine=True, track_running_stats=True)\n    (2): ReLU()\n    (3): Conv2d(128, 128, kernel_size=(3, 3), stride=(1, 1), padding=(1, 1))\n    (4): BatchNorm2d(128, eps=1e-05, momentum=0.1, affine=True, track_running_stats=True)\n    (5): ReLU()\n    (6): MaxPool2d(kernel_size=2, stride=2, padding=0, dilation=1, ceil_mode=False)\n  )\n  (classifier): Sequential(\n    (0): Flatten(start_dim=1, end_dim=-1)\n    (1): Linear(in_features=4608, out_features=128, bias=True)\n    (2): ReLU()\n    (3): Linear(in_features=128, out_features=3, bias=True)\n  )\n)"}, "version": 26, "at": 1717659388.8424058}
{"obj": {"type": "UploadFile", "path": ["model", "code"], "ext": "py", "file_path": "/Users/rishimalhotra/projects/cv/image_classification/repo_hub/training_repo/src/model_builder.py", "tmp_file_name": null, "clean_after_upload": false}, "version": 27, "at": 1717659388.842529}
{"obj": {"type": "LogStrin
…
